Fold1,Mean±Std,epochs,bz,lr,wd,lr_jitter,0
0.52,0.52±nan,1.0,64.0,0.001,0.0001,True,"TFformer3(
  (attentionEncoder): ModuleList(
    (0): ModuleList(
      (0): Attention(
        (attend): Softmax(dim=-1)
        (dropout): Dropout(p=0.3, inplace=False)
        (to_qkv): Linear(in_features=9, out_features=192, bias=False)
        (to_out): Sequential(
          (0): Linear(in_features=64, out_features=9, bias=True)
          (1): Dropout(p=0.3, inplace=False)
        )
      )
      (1): LayerNorm((9,), eps=1e-05, elementwise_affine=True)
      (2): FeedForward(
        (net): Sequential(
          (0): Linear(in_features=9, out_features=8, bias=True)
          (1): GELU(approximate=none)
          (2): Dropout(p=0.5, inplace=False)
          (3): Linear(in_features=8, out_features=9, bias=True)
          (4): Dropout(p=0.5, inplace=False)
        )
      )
      (3): LayerNorm((9,), eps=1e-05, elementwise_affine=True)
    )
    (1): ModuleList(
      (0): Attention(
        (attend): Softmax(dim=-1)
        (dropout): Dropout(p=0.3, inplace=False)
        (to_qkv): Linear(in_features=9, out_features=192, bias=False)
        (to_out): Sequential(
          (0): Linear(in_features=64, out_features=9, bias=True)
          (1): Dropout(p=0.3, inplace=False)
        )
      )
      (1): LayerNorm((9,), eps=1e-05, elementwise_affine=True)
      (2): FeedForward(
        (net): Sequential(
          (0): Linear(in_features=9, out_features=8, bias=True)
          (1): GELU(approximate=none)
          (2): Dropout(p=0.5, inplace=False)
          (3): Linear(in_features=8, out_features=9, bias=True)
          (4): Dropout(p=0.5, inplace=False)
        )
      )
      (3): LayerNorm((9,), eps=1e-05, elementwise_affine=True)
    )
  )
  (fc): Linear(in_features=125, out_features=40, bias=True)
  (time_head): Sequential(
    (0): Conv1d(9, 160, kernel_size=(7,), stride=(1,))
    (1): GELU(approximate=none)
    (2): AdaptiveAvgPool1d(output_size=1)
    (3): Flatten(start_dim=1, end_dim=-1)
    (4): Linear(in_features=160, out_features=80, bias=True)
    (5): Sigmoid()
    (6): Dropout(p=0.5, inplace=False)
    (7): Linear(in_features=80, out_features=40, bias=True)
    (8): GELU(approximate=none)
  )
  (conv_layers): Sequential(
    (0): Sequential(
      (0): Conv2dWithConstraint(1, 18, kernel_size=(9, 1), stride=(1, 1))
      (1): BatchNorm2d(18, eps=1e-05, momentum=0.1, affine=True, track_running_stats=True)
      (2): PReLU(num_parameters=1)
      (3): Dropout(p=0.5, inplace=False)
    )
    (1): Sequential(
      (0): Conv2d(18, 9, kernel_size=(1, 1), stride=(1, 1))
      (1): BatchNorm2d(9, eps=1e-05, momentum=0.1, affine=True, track_running_stats=True)
      (2): PReLU(num_parameters=1)
      (3): Dropout(p=0.5, inplace=False)
    )
  )
  (subnetwork): SSVEPformer(
    (to_patch_embedding): Sequential(
      (0): Conv1d(9, 18, kernel_size=(1,), stride=(1,))
      (1): LayerNorm((560,), eps=1e-05, elementwise_affine=True)
      (2): GELU(approximate=none)
      (3): Dropout(p=0.5, inplace=False)
    )
    (transformer): convTransformer(
      (layers): ModuleList(
        (0): ModuleList(
          (0): PreNorm(
            (norm): LayerNorm((560,), eps=1e-05, elementwise_affine=True)
            (fn): convAttention(
              (att2conv): Sequential(
                (0): Conv1d(18, 18, kernel_size=(31,), stride=(1,), padding=(15,))
                (1): LayerNorm((560,), eps=1e-05, elementwise_affine=True)
                (2): GELU(approximate=none)
                (3): Dropout(p=0.5, inplace=False)
              )
            )
          )
          (1): PreNorm(
            (norm): LayerNorm((560,), eps=1e-05, elementwise_affine=True)
            (fn): freqFeedForward(
              (net): Sequential(
                (0): Linear(in_features=560, out_features=560, bias=True)
                (1): GELU(approximate=none)
                (2): Dropout(p=0.5, inplace=False)
              )
            )
          )
        )
        (1): ModuleList(
          (0): PreNorm(
            (norm): LayerNorm((560,), eps=1e-05, elementwise_affine=True)
            (fn): convAttention(
              (att2conv): Sequential(
                (0): Conv1d(18, 18, kernel_size=(31,), stride=(1,), padding=(15,))
                (1): LayerNorm((560,), eps=1e-05, elementwise_affine=True)
                (2): GELU(approximate=none)
                (3): Dropout(p=0.5, inplace=False)
              )
            )
          )
          (1): PreNorm(
            (norm): LayerNorm((560,), eps=1e-05, elementwise_affine=True)
            (fn): freqFeedForward(
              (net): Sequential(
                (0): Linear(in_features=560, out_features=560, bias=True)
                (1): GELU(approximate=none)
                (2): Dropout(p=0.5, inplace=False)
              )
            )
          )
        )
      )
    )
    (mlp_head): Sequential(
      (0): Flatten(start_dim=1, end_dim=-1)
      (1): Dropout(p=0.5, inplace=False)
      (2): Linear(in_features=10080, out_features=160, bias=True)
      (3): LayerNorm((160,), eps=1e-05, elementwise_affine=True)
      (4): GELU(approximate=none)
      (5): Dropout(p=0.5, inplace=False)
      (6): Linear(in_features=160, out_features=80, bias=True)
    )
  )
  (fully_connected): Sequential(
    (0): Linear(in_features=120, out_features=40, bias=True)
    (1): LayerNorm((40,), eps=1e-05, elementwise_affine=True)
    (2): GELU(approximate=none)
  )
  (crossAttentionEncoder): ModuleList(
    (0): ModuleList(
      (0): CrossAttention(
        (proj_q1): Linear(in_features=18, out_features=64, bias=False)
        (proj_k2): Linear(in_features=9, out_features=64, bias=False)
        (proj_v2): Linear(in_features=9, out_features=64, bias=False)
        (proj_o): Linear(in_features=64, out_features=18, bias=True)
      )
      (1): LayerNorm((18,), eps=1e-05, elementwise_affine=True)
      (2): FeedForward(
        (net): Sequential(
          (0): Linear(in_features=18, out_features=16, bias=True)
          (1): GELU(approximate=none)
          (2): Dropout(p=0.5, inplace=False)
          (3): Linear(in_features=16, out_features=18, bias=True)
          (4): Dropout(p=0.5, inplace=False)
        )
      )
      (3): LayerNorm((18,), eps=1e-05, elementwise_affine=True)
    )
    (1): ModuleList(
      (0): CrossAttention(
        (proj_q1): Linear(in_features=18, out_features=64, bias=False)
        (proj_k2): Linear(in_features=9, out_features=64, bias=False)
        (proj_v2): Linear(in_features=9, out_features=64, bias=False)
        (proj_o): Linear(in_features=64, out_features=18, bias=True)
      )
      (1): LayerNorm((18,), eps=1e-05, elementwise_affine=True)
      (2): FeedForward(
        (net): Sequential(
          (0): Linear(in_features=18, out_features=16, bias=True)
          (1): GELU(approximate=none)
          (2): Dropout(p=0.5, inplace=False)
          (3): Linear(in_features=16, out_features=18, bias=True)
          (4): Dropout(p=0.5, inplace=False)
        )
      )
      (3): LayerNorm((18,), eps=1e-05, elementwise_affine=True)
    )
  )
  (mlp_head): Sequential(
    (0): Flatten(start_dim=1, end_dim=-1)
    (1): Dropout(p=0.5, inplace=False)
    (2): Linear(in_features=10080, out_features=240, bias=True)
    (3): LayerNorm((240,), eps=1e-05, elementwise_affine=True)
    (4): GELU(approximate=none)
    (5): Dropout(p=0.5, inplace=False)
    (6): Linear(in_features=240, out_features=40, bias=True)
  )
)"
2.08,2.08±nan,,,,,,
3.65,3.65±nan,,,,,,
2.08,2.08±1.28,,,,,,
